…
06, gamma=0.5, optimizer='adam', criterion='l1', data_path='D:/GOPRO_Large', dir_path='.\\experiments\\MIMO_UNet\\GoPro\\restart_20260416_003348\\stage2', model_name='BlurDM', model='BlurDM', model_le_path='.\\experiments\\MIMO_UNet\\GoPro\\restart_20260416_003348\\stage1\\final_le_MIMOUNetBlurDM.pth', seed=2023, val_save_epochs=1, resume=None, only_use_generate_data=False, num_workers=0, local_rank=0, device=device(type='cuda', index=0))
INFO:latent encoder: DistributedDataParallel(
  (module): LE_arch(
    (pixel_unshuffle): PixelUnshuffle(downscale_factor=4)
    (stem): Sequential(
      (0): Conv2d(96, 64, kernel_size=(3, 3), stride=(1, 1), padding=(1, 1))
      (1): LeakyReLU(negative_slope=0.1, inplace=True)
    )
    (trunk): Sequential(
      (0): ResBlock(
        (body): Sequential(
          (0): Conv2d(64, 64, kernel_size=(3, 3), stride=(1, 1), padding=(1, 1))
          (1): LeakyReLU(negative_slope=0.1, inplace=True)
          (2): Conv2d(64, 64, kernel_size=(3, 3), stride=(1, 1), padding=(1, 1))
        )
      )
      (1): ResBlock(
        (body): Sequential(
          (0): Conv2d(64, 64, kernel_size=(3, 3), stride=(1, 1), padding=(1, 1))
          (1): LeakyReLU(negative_slope=0.1, inplace=True)
          (2): Conv2d(64, 64, kernel_size=(3, 3), stride=(1, 1), padding=(1, 1))
        )
      )
      (2): ResBlock(
        (body): Sequential(
          (0): Conv2d(64, 64, kernel_size=(3, 3), stride=(1, 1), padding=(1, 1))
          (1): LeakyReLU(negative_slope=0.1, inplace=True)
          (2): Conv2d(64, 64, kernel_size=(3, 3), stride=(1, 1), padding=(1, 1))
        )
      )
      (3): ResBlock(
        (body): Sequential(
          (0): Conv2d(64, 64, kernel_size=(3, 3), stride=(1, 1), padding=(1, 1))
          (1): LeakyReLU(negative_slope=0.1, inplace=True)
          (2): Conv2d(64, 64, kernel_size=(3, 3), stride=(1, 1), padding=(1, 1))
        )
      )
      (4): ResBlock(
        (body): Sequential(
          (0): Conv2d(64, 64, kernel_size=(3, 3), stride=(1, 1), padding=(1, 1))
          (1): LeakyReLU(negative_slope=0.1, inplace=True)
          (2): Conv2d(64, 64, kernel_size=(3, 3), stride=(1, 1), padding=(1, 1))
        )
      )
      (5): ResBlock(
        (body): Sequential(
          (0): Conv2d(64, 64, kernel_size=(3, 3), stride=(1, 1), padding=(1, 1))
          (1): LeakyReLU(negative_slope=0.1, inplace=True)
          (2): Conv2d(64, 64, kernel_size=(3, 3), stride=(1, 1), padding=(1, 1))
        )
      )
    )
    (head): Sequential(
      (0): Conv2d(64, 128, kernel_size=(3, 3), stride=(1, 1), padding=(1, 1))
      (1): LeakyReLU(negative_slope=0.1, inplace=True)
      (2): Conv2d(128, 128, kernel_size=(3, 3), stride=(1, 1), padding=(1, 1))
      (3): LeakyReLU(negative_slope=0.1, inplace=True)
      (4): Conv2d(128, 256, kernel_size=(3, 3), stride=(1, 1), padding=(1, 1))
      (5): LeakyReLU(negative_slope=0.1, inplace=True)
      (6): AdaptiveAvgPool2d(output_size=1)
    )
    (mlp): Sequential(
      (0): Linear(in_features=256, out_features=256, bias=True)
      (1): GELU(approximate='none')
      (2): Linear(in_features=256, out_features=256, bias=True)
      (3): GELU(approximate='none')
    )
  )
)
INFO:latent dm encoder: DistributedDataParallel(
  (module): LatentExposureDiffusion(
    (blur_residual_model): DenoiseHead(
      (time_emb): SinusoidalPosEmb()
      (net): Sequential(
        (0): Linear(in_features=576, out_features=256, bias=True)
        (1): LeakyReLU(negative_slope=0.1, inplace=True)
        (2): ResMLP(
          (block): Sequential(
            (0): Linear(in_features=256, out_features=256, bias=True)
            (1): LeakyReLU(negative_slope=0.1, inplace=True)
          )
        )
        (3): ResMLP(
          (block): Sequential(
            (0): Linear(in_features=256, out_features=256, bias=True)
            (1): LeakyReLU(negative_slope=0.1, inplace=True)
          )
        )
        (4): ResMLP(
          (block): Sequential(
            (0): Linear(in_features=256, out_features=256, bias=True)
            (1): LeakyReLU(negative_slope=0.1, inplace=True)
          )
        )
        (5): ResMLP(
          (block): Sequential(
            (0): Linear(in_features=256, out_features=256, bias=True)
            (1): LeakyReLU(negative_slope=0.1, inplace=True)
          )
        )
        (6): ResMLP(
          (block): Sequential(
            (0): Linear(in_features=256, out_features=256, bias=True)
            (1): LeakyReLU(negative_slope=0.1, inplace=True)
          )
        )
      )
    )
    (noise_model): DenoiseHead(
      (time_emb): SinusoidalPosEmb()
      (net): Sequential(
        (0): Linear(in_features=576, out_features=256, bias=True)
        (1): LeakyReLU(negative_slope=0.1, inplace=True)
        (2): ResMLP(
          (block): Sequential(
            (0): Linear(in_features=256, out_features=256, bias=True)
            (1): LeakyReLU(negative_slope=0.1, inplace=True)
          )
        )
        (3): ResMLP(
          (block): Sequential(
            (0): Linear(in_features=256, out_features=256, bias=True)
            (1): LeakyReLU(negative_slope=0.1, inplace=True)
          )
        )
        (4): ResMLP(
          (block): Sequential(
            (0): Linear(in_features=256, out_features=256, bias=True)
            (1): LeakyReLU(negative_slope=0.1, inplace=True)
          )
        )
        (5): ResMLP(
          (block): Sequential(
            (0): Linear(in_features=256, out_features=256, bias=True)
            (1): LeakyReLU(negative_slope=0.1, inplace=True)
          )
        )
        (6): ResMLP(
          (block): Sequential(
            (0): Linear(in_features=256, out_features=256, bias=True)
            (1): LeakyReLU(negative_slope=0.1, inplace=True)
          )
        )
      )
    )
    (condition_encoder): LE_arch(
      (pixel_unshuffle): PixelUnshuffle(downscale_factor=4)
      (stem): Sequential(
        (0): Conv2d(96, 64, kernel_size=(3, 3), stride=(1, 1), padding=(1, 1))
        (1): LeakyReLU(negative_slope=0.1, inplace=True)
      )
      (trunk): Sequential(
        (0): ResBlock(
          (body): Sequential(
            (0): Conv2d(64, 64, kernel_size=(3, 3), stride=(1, 1), padding=(1, 1))
            (1): LeakyReLU(negative_slope=0.1, inplace=True)
            (2): Conv2d(64, 64, kernel_size=(3, 3), stride=(1, 1), padding=(1, 1))
          )
        )
        (1): ResBlock(
          (body): Sequential(
            (0): Conv2d(64, 64, kernel_size=(3, 3), stride=(1, 1), padding=(1, 1))
            (1): LeakyReLU(negative_slope=0.1, inplace=True)
            (2): Conv2d(64, 64, kernel_size=(3, 3), stride=(1, 1), padding=(1, 1))
          )
        )
        (2): ResBlock(
          (body): Sequential(
            (0): Conv2d(64, 64, kernel_size=(3, 3), stride=(1, 1), padding=(1, 1))
            (1): LeakyReLU(negative_slope=0.1, inplace=True)
            (2): Conv2d(64, 64, kernel_size=(3, 3), stride=(1, 1), padding=(1, 1))
          )
        )
        (3): ResBlock(
          (body): Sequential(
            (0): Conv2d(64, 64, kernel_size=(3, 3), stride=(1, 1), padding=(1, 1))
            (1): LeakyReLU(negative_slope=0.1, inplace=True)
            (2): Conv2d(64, 64, kernel_size=(3, 3), stride=(1, 1), padding=(1, 1))
          )
        )
        (4): ResBlock(
          (body): Sequential(
            (0): Conv2d(64, 64, kernel_size=(3, 3), stride=(1, 1), padding=(1, 1))
            (1): LeakyReLU(negative_slope=0.1, inplace=True)
            (2): Conv2d(64, 64, kernel_size=(3, 3), stride=(1, 1), padding=(1, 1))
          )
        )
        (5): ResBlock(
          (body): Sequential(
            (0): Conv2d(64, 64, kernel_size=(3, 3), stride=(1, 1), padding=(1, 1))
            (1): LeakyReLU(negative_slope=0.1, inplace=True)
            (2): Conv2d(64, 64, kernel_size=(3, 3), stride=(1, 1), padding=(1, 1))
          )
        )
      )
      (head): Sequential(
        (0): Conv2d(64, 128, kernel_size=(3, 3), stride=(1, 1), padding=(1, 1))
        (1): LeakyReLU(negative_slope=0.1, inplace=True)
        (2): Conv2d(128, 128, kernel_size=(3, 3), stride=(1, 1), padding=(1, 1))
        (3): LeakyReLU(negative_slope=0.1, inplace=True)
        (4): Conv2d(128, 256, kernel_size=(3, 3), stride=(1, 1), padding=(1, 1))
        (5): LeakyReLU(negative_slope=0.1, inplace=True)
        (6): AdaptiveAvgPool2d(output_size=1)
      )
      (mlp): Sequential(
        (0): Linear(in_features=256, out_features=256, bias=True)
        (1): GELU(approximate='none')
        (2): Linear(in_features=256, out_features=256, bias=True)
        (3): GELU(approximate='none')
      )
    )
  )
)
INFO:latent encoder parameters: 1146688
INFO:latent dm encoder parameters: 2100032
INFO:Optimizer:Adam
INFO:Train Data length:4206
INFO:Reducer buckets have been rebuilt in this iteration.
INFO:Reducer buckets have been rebuilt in this iteration.
INFO:Epoch [1/3]: Train_loss: 2.1748
INFO:Crop Validation Epoch [1/3]: Test Loss: 1.9429 
…
