…
oPro\\restart_20260416_003348\\stage2\\final_dm_BlurDM.pth', model_path='.\\experiments\\MIMO_UNet\\GoPro\\restart_20260416_003348\\stage1\\final_deblur_MIMOUNetBlurDM.pth', seed=2023, val_save_epochs=1, resume=None, only_use_generate_data=False, num_workers=0, local_rank=0, device=device(type='cuda', index=0))
INFO:model: DistributedDataParallel(
  (module): MIMOUNetPlusPrior(
    (Encoder): ModuleList(
      (0): EBlock(
        (layers): Sequential(
          (0): ResBlock(
            (main): Sequential(
              (0): BasicConv(
                (main): Sequential(
                  (0): Conv2d(32, 32, kernel_size=(3, 3), stride=(1, 1), padding=(1, 1))
                  (1): ReLU(inplace=True)
                )
              )
              (1): BasicConv(
                (main): Sequential(
                  (0): Conv2d(32, 32, kernel_size=(3, 3), stride=(1, 1), padding=(1, 1))
                )
              )
            )
          )
          (1): ResBlock(
            (main): Sequential(
              (0): BasicConv(
                (main): Sequential(
                  (0): Conv2d(32, 32, kernel_size=(3, 3), stride=(1, 1), padding=(1, 1))
                  (1): ReLU(inplace=True)
                )
              )
              (1): BasicConv(
                (main): Sequential(
                  (0): Conv2d(32, 32, kernel_size=(3, 3), stride=(1, 1), padding=(1, 1))
                )
              )
            )
          )
          (2): ResBlock(
            (main): Sequential(
              (0): BasicConv(
                (main): Sequential(
                  (0): Conv2d(32, 32, kernel_size=(3, 3), stride=(1, 1), padding=(1, 1))
                  (1): ReLU(inplace=True)
                )
              )
              (1): BasicConv(
                (main): Sequential(
                  (0): Conv2d(32, 32, kernel_size=(3, 3), stride=(1, 1), padding=(1, 1))
                )
              )
            )
          )
          (3): ResBlock(
            (main): Sequential(
              (0): BasicConv(
                (main): Sequential(
                  (0): Conv2d(32, 32, kernel_size=(3, 3), stride=(1, 1), padding=(1, 1))
                  (1): ReLU(inplace=True)
                )
              )
              (1): BasicConv(
                (main): Sequential(
                  (0): Conv2d(32, 32, kernel_size=(3, 3), stride=(1, 1), padding=(1, 1))
                )
              )
            )
          )
          (4): ResBlock(
            (main): Sequential(
              (0): BasicConv(
                (main): Sequential(
                  (0): Conv2d(32, 32, kernel_size=(3, 3), stride=(1, 1), padding=(1, 1))
                  (1): ReLU(inplace=True)
                )
              )
              (1): BasicConv(
                (main): Sequential(
                  (0): Conv2d(32, 32, kernel_size=(3, 3), stride=(1, 1), padding=(1, 1))
                )
              )
            )
          )
          (5): ResBlock(
            (main): Sequential(
              (0): BasicConv(
                (main): Sequential(
                  (0): Conv2d(32, 32, kernel_size=(3, 3), stride=(1, 1), padding=(1, 1))
                  (1): ReLU(inplace=True)
                )
              )
              (1): BasicConv(
                (main): Sequential(
                  (0): Conv2d(32, 32, kernel_size=(3, 3), stride=(1, 1), padding=(1, 1))
                )
              )
            )
          )
          (6): ResBlock(
            (main): Sequential(
              (0): BasicConv(
                (main): Sequential(
                  (0): Conv2d(32, 32, kernel_size=(3, 3), stride=(1, 1), padding=(1, 1))
                  (1): ReLU(inplace=True)
                )
              )
              (1): BasicConv(
                (main): Sequential(
                  (0): Conv2d(32, 32, kernel_size=(3, 3), stride=(1, 1), padding=(1, 1))
                )
              )
            )
          )
          (7): ResBlock(
            (main): Sequential(
              (0): BasicConv(
                (main): Sequential(
                  (0): Conv2d(32, 32, kernel_size=(3, 3), stride=(1, 1), padding=(1, 1))
                  (1): ReLU(inplace=True)
                )
              )
              (1): BasicConv(
                (main): Sequential(
                  (0): Conv2d(32, 32, kernel_size=(3, 3), stride=(1, 1), padding=(1, 1))
                )
              )
            )
          )
          (8): ResBlock(
            (main): Sequential(
              (0): BasicConv(
                (main): Sequential(
                  (0): Conv2d(32, 32, kernel_size=(3, 3), stride=(1, 1), padding=(1, 1))
                  (1): ReLU(inplace=True)
                )
              )
              (1): BasicConv(
                (main): Sequential(
                  (0): Conv2d(32, 32, kernel_size=(3, 3), stride=(1, 1), padding=(1, 1))
                )
              )
            )
          )
          (9): ResBlock(
            (main): Sequential(
              (0): BasicConv(
                (main): Sequential(
                  (0): Conv2d(32, 32, kernel_size=(3, 3), stride=(1, 1), padding=(1, 1))
                  (1): ReLU(inplace=True)
                )
              )
              (1): BasicConv(
                (main): Sequential(
                  (0): Conv2d(32, 32, kernel_size=(3, 3), stride=(1, 1), padding=(1, 1))
                )
              )
            )
          )
          (10): ResBlock(
            (main): Sequential(
              (0): BasicConv(
                (main): Sequential(
                  (0): Conv2d(32, 32, kernel_size=(3, 3), stride=(1, 1), padding=(1, 1))
                  (1): ReLU(inplace=True)
                )
              )
              (1): BasicConv(
                (main): Sequential(
                  (0): Conv2d(32, 32, kernel_size=(3, 3), stride=(1, 1), padding=(1, 1))
                )
              )
            )
          )
          (11): ResBlock(
            (main): Sequential(
              (0): BasicConv(
                (main): Sequential(
                  (0): Conv2d(32, 32, kernel_size=(3, 3), stride=(1, 1), padding=(1, 1))
                  (1): ReLU(inplace=True)
                )
              )
              (1): BasicConv(
                (main): Sequential(
                  (0): Conv2d(32, 32, kernel_size=(3, 3), stride=(1, 1), padding=(1, 1))
                )
              )
            )
          )
          (12): ResBlock(
            (main): Sequential(
              (0): BasicConv(
                (main): Sequential(
                  (0): Conv2d(32, 32, kernel_size=(3, 3), stride=(1, 1), padding=(1, 1))
                  (1): ReLU(inplace=True)
                )
              )
              (1): BasicConv(
                (main): Sequential(
                  (0): Conv2d(32, 32, kernel_size=(3, 3), stride=(1, 1), padding=(1, 1))
                )
              )
            )
          )
          (13): ResBlock(
            (main): Sequential(
              (0): BasicConv(
                (main): Sequential(
                  (0): Conv2d(32, 32, kernel_size=(3, 3), stride=(1, 1), padding=(1, 1))
                  (1): ReLU(inplace=True)
                )
              )
              (1): BasicConv(
                (main): Sequential(
                  (0): Conv2d(32, 32, kernel_size=(3, 3), stride=(1, 1), padding=(1, 1))
                )
              )
            )
          )
          (14): ResBlock(
            (main): Sequential(
              (0): BasicConv(
                (main): Sequential(
                  (0): Conv2d(32, 32, kernel_size=(3, 3), stride=(1, 1), padding=(1, 1))
                  (1): ReLU(inplace=True)
                )
              )
              (1): BasicConv(
                (main): Sequential(
                  (0): Conv2d(32, 32, kernel_size=(3, 3), stride=(1, 1), padding=(1, 1))
                )
              )
            )
          )
          (15): ResBlock(
            (main): Sequential(
              (0): BasicConv(
                (main): Sequential(
                  (0): Conv2d(32, 32, kernel_size=(3, 3), stride=(1, 1), padding=(1, 1))
                  (1): ReLU(inplace=True)
                )
              )
              (1): BasicConv(
                (main): Sequential(
                  (0): Conv2d(32, 32, kernel_size=(3, 3), stride=(1, 1), padding=(1, 1))
                )
              )
            )
          )
          (16): ResBlock(
            (main): Sequential(
              (0): BasicConv(
                (main): Sequential(
                  (0): Conv2d(32, 32, kernel_size=(3, 3), stride=(1, 1), padding=(1, 1))
                  (1): ReLU(inplace=True)
                )
              )
              (1): BasicConv(
                (main): Sequential(
                  (0): Conv2d(32, 32, kernel_size=(3, 3), stride=(1, 1), padding=(1, 1))
                )
              )
            )
          )
          (17): ResBlock(
            (main): Sequential(
              (0): BasicConv(
                (main): Sequential(
                  (0): Conv2d(32, 32, kernel_size=(3, 3), stride=(1, 1), padding=(1, 1))
                  (1): ReLU(inplace=True)
                )
              )
              (1): BasicConv(
                (main): Sequential(
                  (0): Conv2d(32, 32, kernel_size=(3, 3), stride=(1, 1), padding=(1, 1))
                )
              )
            )
          )
          (18): ResBlock(
            (main): Sequential(
              (0): BasicConv(
                (main): Sequential(
                  (0): Conv2d(32, 32, kernel_size=(3, 3), stride=(1, 1), padding=(1, 1))
                  (1): ReLU(inplace=True)
                )
              )
              (1): BasicConv(
                (main): Sequential(
                  (0): Conv2d(32, 32, kernel_size=(3, 3), stride=(1, 1), padding=(1, 1))
                )
              )
            )
          )
          (19): ResBlock(
            (main): Sequential(
              (0): BasicConv(
                (main): Sequential(
                  (0): Conv2d(32, 32, kernel_size=(3, 3), stride=(1, 1), padding=(1, 1))
                  (1): ReLU(inplace=True)
                )
              )
              (1): BasicConv(
                (main): Sequential(
                  (0): Conv2d(32, 32, kernel_size=(3, 3), stride=(1, 1), padding=(1, 1))
                )
              )
            )
          )
        )
      )
      (1): EBlock(
        (layers): Sequential(
          (0): ResBlock(
            (main): Sequential(
              (0): BasicConv(
                (main): Sequential(
                  (0): Conv2d(64, 64, kernel_size=(3, 3), stride=(1, 1), padding=(1, 1))
                  (1): ReLU(inplace=True)
                )
              )
              (1): BasicConv(
                (main): Sequential(
                  (0): Conv2d(64, 64, kernel_size=(3, 3), stride=(1, 1), padding=(1, 1))
                )
              )
            )
          )
          (1): ResBlock(
            (main): Sequential(
              (0): BasicConv(
                (main): Sequential(
                  (0): Conv2d(64, 64, kernel_size=(3, 3), stride=(1, 1), padding=(1, 1))
                  (1): ReLU(inplace=True)
                )
              )
              (1): BasicConv(
                (main): Sequential(
                  (0): Conv2d(64, 64, kernel_size=(3, 3), stride=(1, 1), padding=(1, 1))
                )
              )
            )
          )
          (2): ResBlock(
            (main): Sequential(
              (0): BasicConv(
                (main): Sequential(
                  (0): Conv2d(64, 64, kernel_size=(3, 3), stride=(1, 1), padding=(1, 1))
                  (1): ReLU(inplace=True)
                )
              )
              (1): BasicConv(
                (main): Sequential(
                  (0): Conv2d(64, 64, kernel_size=(3, 3), stride=(1, 1), padding=(1, 1))
                )
              )
            )
          )
          (3): ResBlock(
            (main): Sequential(
              (0): BasicConv(
                (main): Sequential(
                  (0): Conv2d(64, 64, kernel_size=(3, 3), stride=(1, 1), padding=(1, 1))
                  (1): ReLU(inplace=True)
                )
              )
              (1): BasicConv(
                (main): Sequential(
                  (0): Conv2d(64, 64, kernel_size=(3, 3), stride=(1, 1), padding=(1, 1))
                )
              )
            )
          )
          (4): ResBlock(
            (main): Sequential(
              (0): BasicConv(
                (main): Sequential(
                  (0): Conv2d(64, 64, kernel_size=(3, 3), stride=(1, 1), padding=(1, 1))
                  (1): ReLU(inplace=True)
                )
              )
              (1): BasicConv(
                (main): Sequential(
                  (0): Conv2d(64, 64, kernel_size=(3, 3), stride=(1, 1), padding=(1, 1))
                )
              )
            )
          )
          (5): ResBlock(
            (main): Sequential(
              (0): BasicConv(
                (main): Sequential(
                  (0): Conv2d(64, 64, kernel_size=(3, 3), stride=(1, 1), padding=(1, 1))
                  (1): ReLU(inplace=True)
                )
              )
              (1): BasicConv(
                (main): Sequential(
                  (0): Conv2d(64, 64, kernel_size=(3, 3), stride=(1, 1), padding=(1, 1))
                )
              )
            )
          )
          (6): ResBlock(
            (main): Sequential(
              (0): BasicConv(
                (main): Sequential(
                  (0): Conv2d(64, 64, kernel_size=(3, 3), stride=(1, 1), padding=(1, 1))
                  (1): ReLU(inplace=True)
                )
              )
              (1): BasicConv(
                (main): Sequential(
                  (0): Conv2d(64, 64, kernel_size=(3, 3), stride=(1, 1), padding=(1, 1))
                )
              )
            )
          )
          (7): ResBlock(
            (main): Sequential(
              (0): BasicConv(
                (main): Sequential(
                  (0): Conv2d(64, 64, kernel_size=(3, 3), stride=(1, 1), padding=(1, 1))
                  (1): ReLU(inplace=True)
                )
              )
              (1): BasicConv(
                (main): Sequential(
                  (0): Conv2d(64, 64, kernel_size=(3, 3), stride=(1, 1), padding=(1, 1))
                )
              )
            )
          )
          (8): ResBlock(
            (main): Sequential(
              (0): BasicConv(
                (main): Sequential(
                  (0): Conv2d(64, 64, kernel_size=(3, 3), stride=(1, 1), padding=(1, 1))
                  (1): ReLU(inplace=True)
                )
              )
              (1): BasicConv(
                (main): Sequential(
                  (0): Conv2d(64, 64, kernel_size=(3, 3), stride=(1, 1), padding=(1, 1))
                )
              )
            )
          )
          (9): ResBlock(
            (main): Sequential(
              (0): BasicConv(
                (main): Sequential(
                  (0): Conv2d(64, 64, kernel_size=(3, 3), stride=(1, 1), padding=(1, 1))
                  (1): ReLU(inplace=True)
                )
              )
              (1): BasicConv(
                (main): Sequential(
                  (0): Conv2d(64, 64, kernel_size=(3, 3), stride=(1, 1), padding=(1, 1))
                )
              )
            )
          )
          (10): ResBlock(
            (main): Sequential(
              (0): BasicConv(
                (main): Sequential(
                  (0): Conv2d(64, 64, kernel_size=(3, 3), stride=(1, 1), padding=(1, 1))
                  (1): ReLU(inplace=True)
                )
              )
              (1): BasicConv(
                (main): Sequential(
                  (0): Conv2d(64, 64, kernel_size=(3, 3), stride=(1, 1), padding=(1, 1))
                )
              )
            )
          )
          (11): ResBlock(
            (main): Sequential(
              (0): BasicConv(
                (main): Sequential(
                  (0): Conv2d(64, 64, kernel_size=(3, 3), stride=(1, 1), padding=(1, 1))
                  (1): ReLU(inplace=True)
                )
              )
              (1): BasicConv(
                (main): Sequential(
                  (0): Conv2d(64, 64, kernel_size=(3, 3), stride=(1, 1), padding=(1, 1))
                )
              )
            )
          )
          (12): ResBlock(
            (main): Sequential(
              (0): BasicConv(
                (main): Sequential(
                  (0): Conv2d(64, 64, kernel_size=(3, 3), stride=(1, 1), padding=(1, 1))
                  (1): ReLU(inplace=True)
                )
              )
              (1): BasicConv(
                (main): Sequential(
                  (0): Conv2d(64, 64, kernel_size=(3, 3), stride=(1, 1), padding=(1, 1))
                )
              )
            )
          )
          (13): ResBlock(
            (main): Sequential(
              (0): BasicConv(
                (main): Sequential(
                  (0): Conv2d(64, 64, kernel_size=(3, 3), stride=(1, 1), padding=(1, 1))
                  (1): ReLU(inplace=True)
                )
              )
              (1): BasicConv(
                (main): Sequential(
                  (0): Conv2d(64, 64, kernel_size=(3, 3), stride=(1, 1), padding=(1, 1))
                )
              )
            )
          )
          (14): ResBlock(
            (main): Sequential(
              (0): BasicConv(
                (main): Sequential(
                  (0): Conv2d(64, 64, kernel_size=(3, 3), stride=(1, 1), padding=(1, 1))
                  (1): ReLU(inplace=True)
                )
              )
              (1): BasicConv(
                (main): Sequential(
                  (0): Conv2d(64, 64, kernel_size=(3, 3), stride=(1, 1), padding=(1, 1))
                )
              )
            )
          )
          (15): ResBlock(
            (main): Sequential(
              (0): BasicConv(
                (main): Sequential(
                  (0): Conv2d(64, 64, kernel_size=(3, 3), stride=(1, 1), padding=(1, 1))
                  (1): ReLU(inplace=True)
                )
              )
              (1): BasicConv(
                (main): Sequential(
                  (0): Conv2d(64, 64, kernel_size=(3, 3), stride=(1, 1), padding=(1, 1))
                )
              )
            )
          )
          (16): ResBlock(
            (main): Sequential(
              (0): BasicConv(
                (main): Sequential(
                  (0): Conv2d(64, 64, kernel_size=(3, 3), stride=(1, 1), padding=(1, 1))
                  (1): ReLU(inplace=True)
                )
              )
              (1): BasicConv(
                (main): Sequential(
                  (0): Conv2d(64, 64, kernel_size=(3, 3), stride=(1, 1), padding=(1, 1))
                )
              )
            )
          )
          (17): ResBlock(
            (main): Sequential(
              (0): BasicConv(
                (main): Sequential(
                  (0): Conv2d(64, 64, kernel_size=(3, 3), stride=(1, 1), padding=(1, 1))
                  (1): ReLU(inplace=True)
                )
              )
              (1): BasicConv(
                (main): Sequential(
                  (0): Conv2d(64, 64, kernel_size=(3, 3), stride=(1, 1), padding=(1, 1))
                )
              )
            )
          )
          (18): ResBlock(
            (main): Sequential(
              (0): BasicConv(
                (main): Sequential(
                  (0): Conv2d(64, 64, kernel_size=(3, 3), stride=(1, 1), padding=(1, 1))
                  (1): ReLU(inplace=True)
                )
              )
              (1): BasicConv(
                (main): Sequential(
                  (0): Conv2d(64, 64, kernel_size=(3, 3), stride=(1, 1), padding=(1, 1))
                )
              )
            )
          )
          (19): ResBlock(
            (main): Sequential(
              (0): BasicConv(
                (main): Sequential(
                  (0): Conv2d(64, 64, kernel_size=(3, 3), stride=(1, 1), padding=(1, 1))
                  (1): ReLU(inplace=True)
                )
              )
              (1): BasicConv(
                (main): Sequential(
                  (0): Conv2d(64, 64, kernel_size=(3, 3), stride=(1, 1), padding=(1, 1))
                )
              )
            )
          )
        )
      )
      (2): EBlock(
        (layers): Sequential(
          (0): ResBlock(
            (main): Sequential(
              (0): BasicConv(
                (main): Sequential(
                  (0): Conv2d(128, 128, kernel_size=(3, 3), stride=(1, 1), padding=(1, 1))
                  (1): ReLU(inplace=True)
                )
              )
              (1): BasicConv(
                (main): Sequential(
                  (0): Conv2d(128, 128, kernel_size=(3, 3), stride=(1, 1), padding=(1, 1))
                )
              )
            )
          )
          (1): ResBlock(
            (main): Sequential(
              (0): BasicConv(
                (main): Sequential(
                  (0): Conv2d(128, 128, kernel_size=(3, 3), stride=(1, 1), padding=(1, 1))
                  (1): ReLU(inplace=True)
                )
              )
              (1): BasicConv(
                (main): Sequential(
                  (0): Conv2d(128, 128, kernel_size=(3, 3), stride=(1, 1), padding=(1, 1))
                )
              )
            )
          )
          (2): ResBlock(
            (main): Sequential(
              (0): BasicConv(
                (main): Sequential(
                  (0): Conv2d(128, 128, kernel_size=(3, 3), stride=(1, 1), padding=(1, 1))
                  (1): ReLU(inplace=True)
                )
              )
              (1): BasicConv(
                (main): Sequential(
                  (0): Conv2d(128, 128, kernel_size=(3, 3), stride=(1, 1), padding=(1, 1))
                )
              )
            )
          )
          (3): ResBlock(
            (main): Sequential(
              (0): BasicConv(
                (main): Sequential(
                  (0): Conv2d(128, 128, kernel_size=(3, 3), stride=(1, 1), padding=(1, 1))
                  (1): ReLU(inplace=True)
                )
              )
              (1): BasicConv(
                (main): Sequential(
                  (0): Conv2d(128, 128, kernel_size=(3, 3), stride=(1, 1), padding=(1, 1))
                )
              )
            )
          )
          (4): ResBlock(
            (main): Sequential(
              (0): BasicConv(
                (main): Sequential(
                  (0): Conv2d(128, 128, kernel_size=(3, 3), stride=(1, 1), padding=(1, 1))
                  (1): ReLU(inplace=True)
                )
              )
              (1): BasicConv(
                (main): Sequential(
                  (0): Conv2d(128, 128, kernel_size=(3, 3), stride=(1, 1), padding=(1, 1))
                )
              )
            )
          )
          (5): ResBlock(
            (main): Sequential(
              (0): BasicConv(
                (main): Sequential(
                  (0): Conv2d(128, 128, kernel_size=(3, 3), stride=(1, 1), padding=(1, 1))
                  (1): ReLU(inplace=True)
                )
              )
              (1): BasicConv(
                (main): Sequential(
                  (0): Conv2d(128, 128, kernel_size=(3, 3), stride=(1, 1), padding=(1, 1))
                )
              )
            )
          )
          (6): ResBlock(
            (main): Sequential(
              (0): BasicConv(
                (main): Sequential(
                  (0): Conv2d(128, 128, kernel_size=(3, 3), stride=(1, 1), padding=(1, 1))
                  (1): ReLU(inplace=True)
                )
              )
              (1): BasicConv(
                (main): Sequential(
                  (0): Conv2d(128, 128, kernel_size=(3, 3), stride=(1, 1), padding=(1, 1))
                )
              )
            )
          )
          (7): ResBlock(
            (main): Sequential(
              (0): BasicConv(
                (main): Sequential(
                  (0): Conv2d(128, 128, kernel_size=(3, 3), stride=(1, 1), padding=(1, 1))
                  (1): ReLU(inplace=True)
                )
              )
              (1): BasicConv(
                (main): Sequential(
                  (0): Conv2d(128, 128, kernel_size=(3, 3), stride=(1, 1), padding=(1, 1))
                )
              )
            )
          )
          (8): ResBlock(
            (main): Sequential(
              (0): BasicConv(
                (main): Sequential(
                  (0): Conv2d(128, 128, kernel_size=(3, 3), stride=(1, 1), padding=(1, 1))
                  (1): ReLU(inplace=True)
                )
              )
              (1): BasicConv(
                (main): Sequential(
                  (0): Conv2d(128, 128, kernel_size=(3, 3), stride=(1, 1), padding=(1, 1))
                )
              )
            )
          )
          (9): ResBlock(
            (main): Sequential(
              (0): BasicConv(
                (main): Sequential(
                  (0): Conv2d(128, 128, kernel_size=(3, 3), stride=(1, 1), padding=(1, 1))
                  (1): ReLU(inplace=True)
                )
              )
              (1): BasicConv(
                (main): Sequential(
                  (0): Conv2d(128, 128, kernel_size=(3, 3), stride=(1, 1), padding=(1, 1))
                )
              )
            )
          )
          (10): ResBlock(
            (main): Sequential(
              (0): BasicConv(
                (main): Sequential(
                  (0): Conv2d(128, 128, kernel_size=(3, 3), stride=(1, 1), padding=(1, 1))
                  (1): ReLU(inplace=True)
                )
              )
              (1): BasicConv(
                (main): Sequential(
                  (0): Conv2d(128, 128, kernel_size=(3, 3), stride=(1, 1), padding=(1, 1))
                )
              )
            )
          )
          (11): ResBlock(
            (main): Sequential(
              (0): BasicConv(
                (main): Sequential(
                  (0): Conv2d(128, 128, kernel_size=(3, 3), stride=(1, 1), padding=(1, 1))
                  (1): ReLU(inplace=True)
                )
              )
              (1): BasicConv(
                (main): Sequential(
                  (0): Conv2d(128, 128, kernel_size=(3, 3), stride=(1, 1), padding=(1, 1))
                )
              )
            )
          )
          (12): ResBlock(
            (main): Sequential(
              (0): BasicConv(
                (main): Sequential(
                  (0): Conv2d(128, 128, kernel_size=(3, 3), stride=(1, 1), padding=(1, 1))
                  (1): ReLU(inplace=True)
                )
              )
              (1): BasicConv(
                (main): Sequential(
                  (0): Conv2d(128, 128, kernel_size=(3, 3), stride=(1, 1), padding=(1, 1))
                )
              )
            )
          )
          (13): ResBlock(
            (main): Sequential(
              (0): BasicConv(
                (main): Sequential(
                  (0): Conv2d(128, 128, kernel_size=(3, 3), stride=(1, 1), padding=(1, 1))
                  (1): ReLU(inplace=True)
                )
              )
              (1): BasicConv(
                (main): Sequential(
                  (0): Conv2d(128, 128, kernel_size=(3, 3), stride=(1, 1), padding=(1, 1))
                )
              )
            )
          )
          (14): ResBlock(
            (main): Sequential(
              (0): BasicConv(
                (main): Sequential(
                  (0): Conv2d(128, 128, kernel_size=(3, 3), stride=(1, 1), padding=(1, 1))
                  (1): ReLU(inplace=True)
                )
              )
              (1): BasicConv(
                (main): Sequential(
                  (0): Conv2d(128, 128, kernel_size=(3, 3), stride=(1, 1), padding=(1, 1))
                )
              )
            )
          )
          (15): ResBlock(
            (main): Sequential(
              (0): BasicConv(
                (main): Sequential(
                  (0): Conv2d(128, 128, kernel_size=(3, 3), stride=(1, 1), padding=(1, 1))
                  (1): ReLU(inplace=True)
                )
              )
              (1): BasicConv(
                (main): Sequential(
                  (0): Conv2d(128, 128, kernel_size=(3, 3), stride=(1, 1), padding=(1, 1))
                )
              )
            )
          )
          (16): ResBlock(
            (main): Sequential(
              (0): BasicConv(
                (main): Sequential(
                  (0): Conv2d(128, 128, kernel_size=(3, 3), stride=(1, 1), padding=(1, 1))
                  (1): ReLU(inplace=True)
                )
              )
              (1): BasicConv(
                (main): Sequential(
                  (0): Conv2d(128, 128, kernel_size=(3, 3), stride=(1, 1), padding=(1, 1))
                )
              )
            )
          )
          (17): ResBlock(
            (main): Sequential(
              (0): BasicConv(
                (main): Sequential(
                  (0): Conv2d(128, 128, kernel_size=(3, 3), stride=(1, 1), padding=(1, 1))
                  (1): ReLU(inplace=True)
                )
              )
              (1): BasicConv(
                (main): Sequential(
                  (0): Conv2d(128, 128, kernel_size=(3, 3), stride=(1, 1), padding=(1, 1))
                )
              )
            )
          )
          (18): ResBlock(
            (main): Sequential(
              (0): BasicConv(
                (main): Sequential(
                  (0): Conv2d(128, 128, kernel_size=(3, 3), stride=(1, 1), padding=(1, 1))
                  (1): ReLU(inplace=True)
                )
              )
              (1): BasicConv(
                (main): Sequential(
                  (0): Conv2d(128, 128, kernel_size=(3, 3), stride=(1, 1), padding=(1, 1))
                )
              )
            )
          )
          (19): ResBlock(
            (main): Sequential(
              (0): BasicConv(
                (main): Sequential(
                  (0): Conv2d(128, 128, kernel_size=(3, 3), stride=(1, 1), padding=(1, 1))
                  (1): ReLU(inplace=True)
                )
              )
              (1): BasicConv(
                (main): Sequential(
                  (0): Conv2d(128, 128, kernel_size=(3, 3), stride=(1, 1), padding=(1, 1))
                )
              )
            )
          )
        )
      )
    )
    (feat_extract): ModuleList(
      (0): BasicConv(
        (main): Sequential(
          (0): Conv2d(3, 32, kernel_size=(3, 3), stride=(1, 1), padding=(1, 1))
          (1): ReLU(inplace=True)
        )
      )
      (1): BasicConv(
        (main): Sequential(
          (0): Conv2d(32, 64, kernel_size=(3, 3), stride=(2, 2), padding=(1, 1))
          (1): ReLU(inplace=True)
        )
      )
      (2): BasicConv(
        (main): Sequential(
          (0): Conv2d(64, 128, kernel_size=(3, 3), stride=(2, 2), padding=(1, 1))
          (1): ReLU(inplace=True)
        )
      )
      (3): BasicConv(
        (main): Sequential(
          (0): ConvTranspose2d(128, 64, kernel_size=(4, 4), stride=(2, 2), padding=(1, 1))
          (1): ReLU(inplace=True)
        )
      )
      (4): BasicConv(
        (main): Sequential(
          (0): ConvTranspose2d(64, 32, kernel_size=(4, 4), stride=(2, 2), padding=(1, 1))
          (1): ReLU(inplace=True)
        )
      )
      (5): BasicConv(
        (main): Sequential(
          (0): Conv2d(32, 3, kernel_size=(3, 3), stride=(1, 1), padding=(1, 1))
        )
      )
    )
    (Decoder): ModuleList(
      (0): DBlock(
        (layers): Sequential(
          (0): ResBlock(
            (main): Sequential(
              (0): BasicConv(
                (main): Sequential(
                  (0): Conv2d(128, 128, kernel_size=(3, 3), stride=(1, 1), padding=(1, 1))
                  (1): ReLU(inplace=True)
                )
              )
              (1): BasicConv(
                (main): Sequential(
                  (0): Conv2d(128, 128, kernel_size=(3, 3), stride=(1, 1), padding=(1, 1))
                )
              )
            )
          )
          (1): ResBlock(
            (main): Sequential(
              (0): BasicConv(
                (main): Sequential(
                  (0): Conv2d(128, 128, kernel_size=(3, 3), stride=(1, 1), padding=(1, 1))
                  (1): ReLU(inplace=True)
                )
              )
              (1): BasicConv(
                (main): Sequential(
                  (0): Conv2d(128, 128, kernel_size=(3, 3), stride=(1, 1), padding=(1, 1))
                )
              )
            )
          )
          (2): ResBlock(
            (main): Sequential(
              (0): BasicConv(
                (main): Sequential(
                  (0): Conv2d(128, 128, kernel_size=(3, 3), stride=(1, 1), padding=(1, 1))
                  (1): ReLU(inplace=True)
                )
              )
              (1): BasicConv(
                (main): Sequential(
                  (0): Conv2d(128, 128, kernel_size=(3, 3), stride=(1, 1), padding=(1, 1))
                )
              )
            )
          )
          (3): ResBlock(
            (main): Sequential(
              (0): BasicConv(
                (main): Sequential(
                  (0): Conv2d(128, 128, kernel_size=(3, 3), stride=(1, 1), padding=(1, 1))
                  (1): ReLU(inplace=True)
                )
              )
              (1): BasicConv(
                (main): Sequential(
                  (0): Conv2d(128, 128, kernel_size=(3, 3), stride=(1, 1), padding=(1, 1))
                )
              )
            )
          )
          (4): ResBlock(
            (main): Sequential(
              (0): BasicConv(
                (main): Sequential(
                  (0): Conv2d(128, 128, kernel_size=(3, 3), stride=(1, 1), padding=(1, 1))
                  (1): ReLU(inplace=True)
                )
              )
              (1): BasicConv(
                (main): Sequential(
                  (0): Conv2d(128, 128, kernel_size=(3, 3), stride=(1, 1), padding=(1, 1))
                )
              )
            )
          )
          (5): ResBlock(
            (main): Sequential(
              (0): BasicConv(
                (main): Sequential(
                  (0): Conv2d(128, 128, kernel_size=(3, 3), stride=(1, 1), padding=(1, 1))
                  (1): ReLU(inplace=True)
                )
              )
              (1): BasicConv(
                (main): Sequential(
                  (0): Conv2d(128, 128, kernel_size=(3, 3), stride=(1, 1), padding=(1, 1))
                )
              )
            )
          )
          (6): ResBlock(
            (main): Sequential(
              (0): BasicConv(
                (main): Sequential(
                  (0): Conv2d(128, 128, kernel_size=(3, 3), stride=(1, 1), padding=(1, 1))
                  (1): ReLU(inplace=True)
                )
              )
              (1): BasicConv(
                (main): Sequential(
                  (0): Conv2d(128, 128, kernel_size=(3, 3), stride=(1, 1), padding=(1, 1))
                )
              )
            )
          )
          (7): ResBlock(
            (main): Sequential(
              (0): BasicConv(
                (main): Sequential(
                  (0): Conv2d(128, 128, kernel_size=(3, 3), stride=(1, 1), padding=(1, 1))
                  (1): ReLU(inplace=True)
                )
              )
              (1): BasicConv(
                (main): Sequential(
                  (0): Conv2d(128, 128, kernel_size=(3, 3), stride=(1, 1), padding=(1, 1))
                )
              )
            )
          )
          (8): ResBlock(
            (main): Sequential(
              (0): BasicConv(
                (main): Sequential(
                  (0): Conv2d(128, 128, kernel_size=(3, 3), stride=(1, 1), padding=(1, 1))
                  (1): ReLU(inplace=True)
                )
              )
              (1): BasicConv(
                (main): Sequential(
                  (0): Conv2d(128, 128, kernel_size=(3, 3), stride=(1, 1), padding=(1, 1))
                )
              )
            )
          )
          (9): ResBlock(
            (main): Sequential(
              (0): BasicConv(
                (main): Sequential(
                  (0): Conv2d(128, 128, kernel_size=(3, 3), stride=(1, 1), padding=(1, 1))
                  (1): ReLU(inplace=True)
                )
              )
              (1): BasicConv(
                (main): Sequential(
                  (0): Conv2d(128, 128, kernel_size=(3, 3), stride=(1, 1), padding=(1, 1))
                )
              )
            )
          )
          (10): ResBlock(
            (main): Sequential(
              (0): BasicConv(
                (main): Sequential(
                  (0): Conv2d(128, 128, kernel_size=(3, 3), stride=(1, 1), padding=(1, 1))
                  (1): ReLU(inplace=True)
                )
              )
              (1): BasicConv(
                (main): Sequential(
                  (0): Conv2d(128, 128, kernel_size=(3, 3), stride=(1, 1), padding=(1, 1))
                )
              )
            )
          )
          (11): ResBlock(
            (main): Sequential(
              (0): BasicConv(
                (main): Sequential(
                  (0): Conv2d(128, 128, kernel_size=(3, 3), stride=(1, 1), padding=(1, 1))
                  (1): ReLU(inplace=True)
                )
              )
              (1): BasicConv(
                (main): Sequential(
                  (0): Conv2d(128, 128, kernel_size=(3, 3), stride=(1, 1), padding=(1, 1))
                )
              )
            )
          )
          (12): ResBlock(
            (main): Sequential(
              (0): BasicConv(
                (main): Sequential(
                  (0): Conv2d(128, 128, kernel_size=(3, 3), stride=(1, 1), padding=(1, 1))
                  (1): ReLU(inplace=True)
                )
              )
              (1): BasicConv(
                (main): Sequential(
                  (0): Conv2d(128, 128, kernel_size=(3, 3), stride=(1, 1), padding=(1, 1))
                )
              )
            )
          )
          (13): ResBlock(
            (main): Sequential(
              (0): BasicConv(
                (main): Sequential(
                  (0): Conv2d(128, 128, kernel_size=(3, 3), stride=(1, 1), padding=(1, 1))
                  (1): ReLU(inplace=True)
                )
              )
              (1): BasicConv(
                (main): Sequential(
                  (0): Conv2d(128, 128, kernel_size=(3, 3), stride=(1, 1), padding=(1, 1))
                )
              )
            )
          )
          (14): ResBlock(
            (main): Sequential(
              (0): BasicConv(
                (main): Sequential(
                  (0): Conv2d(128, 128, kernel_size=(3, 3), stride=(1, 1), padding=(1, 1))
                  (1): ReLU(inplace=True)
                )
              )
              (1): BasicConv(
                (main): Sequential(
                  (0): Conv2d(128, 128, kernel_size=(3, 3), stride=(1, 1), padding=(1, 1))
                )
              )
            )
          )
          (15): ResBlock(
            (main): Sequential(
              (0): BasicConv(
                (main): Sequential(
                  (0): Conv2d(128, 128, kernel_size=(3, 3), stride=(1, 1), padding=(1, 1))
                  (1): ReLU(inplace=True)
                )
              )
              (1): BasicConv(
                (main): Sequential(
                  (0): Conv2d(128, 128, kernel_size=(3, 3), stride=(1, 1), padding=(1, 1))
                )
              )
            )
          )
          (16): ResBlock(
            (main): Sequential(
              (0): BasicConv(
                (main): Sequential(
                  (0): Conv2d(128, 128, kernel_size=(3, 3), stride=(1, 1), padding=(1, 1))
                  (1): ReLU(inplace=True)
                )
              )
              (1): BasicConv(
                (main): Sequential(
                  (0): Conv2d(128, 128, kernel_size=(3, 3), stride=(1, 1), padding=(1, 1))
                )
              )
            )
          )
          (17): ResBlock(
            (main): Sequential(
              (0): BasicConv(
                (main): Sequential(
                  (0): Conv2d(128, 128, kernel_size=(3, 3), stride=(1, 1), padding=(1, 1))
                  (1): ReLU(inplace=True)
                )
              )
              (1): BasicConv(
                (main): Sequential(
                  (0): Conv2d(128, 128, kernel_size=(3, 3), stride=(1, 1), padding=(1, 1))
                )
              )
            )
          )
          (18): ResBlock(
            (main): Sequential(
              (0): BasicConv(
                (main): Sequential(
                  (0): Conv2d(128, 128, kernel_size=(3, 3), stride=(1, 1), padding=(1, 1))
                  (1): ReLU(inplace=True)
                )
              )
              (1): BasicConv(
                (main): Sequential(
                  (0): Conv2d(128, 128, kernel_size=(3, 3), stride=(1, 1), padding=(1, 1))
                )
              )
            )
          )
          (19): ResBlock(
            (main): Sequential(
              (0): BasicConv(
                (main): Sequential(
                  (0): Conv2d(128, 128, kernel_size=(3, 3), stride=(1, 1), padding=(1, 1))
                  (1): ReLU(inplace=True)
                )
              )
              (1): BasicConv(
                (main): Sequential(
                  (0): Conv2d(128, 128, kernel_size=(3, 3), stride=(1, 1), padding=(1, 1))
                )
              )
            )
          )
        )
        (film): Linear(in_features=256, out_features=256, bias=True)
      )
      (1): DBlock(
        (layers): Sequential(
          (0): ResBlock(
            (main): Sequential(
              (0): BasicConv(
                (main): Sequential(
                  (0): Conv2d(64, 64, kernel_size=(3, 3), stride=(1, 1), padding=(1, 1))
                  (1): ReLU(inplace=True)
                )
              )
              (1): BasicConv(
                (main): Sequential(
                  (0): Conv2d(64, 64, kernel_size=(3, 3), stride=(1, 1), padding=(1, 1))
                )
              )
            )
          )
          (1): ResBlock(
            (main): Sequential(
              (0): BasicConv(
                (main): Sequential(
                  (0): Conv2d(64, 64, kernel_size=(3, 3), stride=(1, 1), padding=(1, 1))
                  (1): ReLU(inplace=True)
                )
              )
              (1): BasicConv(
                (main): Sequential(
                  (0): Conv2d(64, 64, kernel_size=(3, 3), stride=(1, 1), padding=(1, 1))
                )
              )
            )
          )
          (2): ResBlock(
            (main): Sequential(
              (0): BasicConv(
                (main): Sequential(
                  (0): Conv2d(64, 64, kernel_size=(3, 3), stride=(1, 1), padding=(1, 1))
                  (1): ReLU(inplace=True)
                )
              )
              (1): BasicConv(
                (main): Sequential(
                  (0): Conv2d(64, 64, kernel_size=(3, 3), stride=(1, 1), padding=(1, 1))
                )
              )
            )
          )
          (3): ResBlock(
            (main): Sequential(
              (0): BasicConv(
                (main): Sequential(
                  (0): Conv2d(64, 64, kernel_size=(3, 3), stride=(1, 1), padding=(1, 1))
                  (1): ReLU(inplace=True)
                )
              )
              (1): BasicConv(
                (main): Sequential(
                  (0): Conv2d(64, 64, kernel_size=(3, 3), stride=(1, 1), padding=(1, 1))
                )
              )
            )
          )
          (4): ResBlock(
            (main): Sequential(
              (0): BasicConv(
                (main): Sequential(
                  (0): Conv2d(64, 64, kernel_size=(3, 3), stride=(1, 1), padding=(1, 1))
                  (1): ReLU(inplace=True)
                )
              )
              (1): BasicConv(
                (main): Sequential(
                  (0): Conv2d(64, 64, kernel_size=(3, 3), stride=(1, 1), padding=(1, 1))
                )
              )
            )
          )
          (5): ResBlock(
            (main): Sequential(
              (0): BasicConv(
                (main): Sequential(
                  (0): Conv2d(64, 64, kernel_size=(3, 3), stride=(1, 1), padding=(1, 1))
                  (1): ReLU(inplace=True)
                )
              )
              (1): BasicConv(
                (main): Sequential(
                  (0): Conv2d(64, 64, kernel_size=(3, 3), stride=(1, 1), padding=(1, 1))
                )
              )
            )
          )
          (6): ResBlock(
            (main): Sequential(
              (0): BasicConv(
                (main): Sequential(
                  (0): Conv2d(64, 64, kernel_size=(3, 3), stride=(1, 1), padding=(1, 1))
                  (1): ReLU(inplace=True)
                )
              )
              (1): BasicConv(
                (main): Sequential(
                  (0): Conv2d(64, 64, kernel_size=(3, 3), stride=(1, 1), padding=(1, 1))
                )
              )
            )
          )
          (7): ResBlock(
            (main): Sequential(
              (0): BasicConv(
                (main): Sequential(
                  (0): Conv2d(64, 64, kernel_size=(3, 3), stride=(1, 1), padding=(1, 1))
                  (1): ReLU(inplace=True)
                )
              )
              (1): BasicConv(
                (main): Sequential(
                  (0): Conv2d(64, 64, kernel_size=(3, 3), stride=(1, 1), padding=(1, 1))
                )
              )
            )
          )
          (8): ResBlock(
            (main): Sequential(
              (0): BasicConv(
                (main): Sequential(
                  (0): Conv2d(64, 64, kernel_size=(3, 3), stride=(1, 1), padding=(1, 1))
                  (1): ReLU(inplace=True)
                )
              )
              (1): BasicConv(
                (main): Sequential(
                  (0): Conv2d(64, 64, kernel_size=(3, 3), stride=(1, 1), padding=(1, 1))
                )
              )
            )
          )
          (9): ResBlock(
            (main): Sequential(
              (0): BasicConv(
                (main): Sequential(
                  (0): Conv2d(64, 64, kernel_size=(3, 3), stride=(1, 1), padding=(1, 1))
                  (1): ReLU(inplace=True)
                )
              )
              (1): BasicConv(
                (main): Sequential(
                  (0): Conv2d(64, 64, kernel_size=(3, 3), stride=(1, 1), padding=(1, 1))
                )
              )
            )
          )
          (10): ResBlock(
            (main): Sequential(
              (0): BasicConv(
                (main): Sequential(
                  (0): Conv2d(64, 64, kernel_size=(3, 3), stride=(1, 1), padding=(1, 1))
                  (1): ReLU(inplace=True)
                )
              )
              (1): BasicConv(
                (main): Sequential(
                  (0): Conv2d(64, 64, kernel_size=(3, 3), stride=(1, 1), padding=(1, 1))
                )
              )
            )
          )
          (11): ResBlock(
            (main): Sequential(
              (0): BasicConv(
                (main): Sequential(
                  (0): Conv2d(64, 64, kernel_size=(3, 3), stride=(1, 1), padding=(1, 1))
                  (1): ReLU(inplace=True)
                )
              )
              (1): BasicConv(
                (main): Sequential(
                  (0): Conv2d(64, 64, kernel_size=(3, 3), stride=(1, 1), padding=(1, 1))
                )
              )
            )
          )
          (12): ResBlock(
            (main): Sequential(
              (0): BasicConv(
                (main): Sequential(
                  (0): Conv2d(64, 64, kernel_size=(3, 3), stride=(1, 1), padding=(1, 1))
                  (1): ReLU(inplace=True)
                )
              )
              (1): BasicConv(
                (main): Sequential(
                  (0): Conv2d(64, 64, kernel_size=(3, 3), stride=(1, 1), padding=(1, 1))
                )
              )
            )
          )
          (13): ResBlock(
            (main): Sequential(
              (0): BasicConv(
                (main): Sequential(
                  (0): Conv2d(64, 64, kernel_size=(3, 3), stride=(1, 1), padding=(1, 1))
                  (1): ReLU(inplace=True)
                )
              )
              (1): BasicConv(
                (main): Sequential(
                  (0): Conv2d(64, 64, kernel_size=(3, 3), stride=(1, 1), padding=(1, 1))
                )
              )
            )
          )
          (14): ResBlock(
            (main): Sequential(
              (0): BasicConv(
                (main): Sequential(
                  (0): Conv2d(64, 64, kernel_size=(3, 3), stride=(1, 1), padding=(1, 1))
                  (1): ReLU(inplace=True)
                )
              )
              (1): BasicConv(
                (main): Sequential(
                  (0): Conv2d(64, 64, kernel_size=(3, 3), stride=(1, 1), padding=(1, 1))
                )
              )
            )
          )
          (15): ResBlock(
            (main): Sequential(
              (0): BasicConv(
                (main): Sequential(
                  (0): Conv2d(64, 64, kernel_size=(3, 3), stride=(1, 1), padding=(1, 1))
                  (1): ReLU(inplace=True)
                )
              )
              (1): BasicConv(
                (main): Sequential(
                  (0): Conv2d(64, 64, kernel_size=(3, 3), stride=(1, 1), padding=(1, 1))
                )
              )
            )
          )
          (16): ResBlock(
            (main): Sequential(
              (0): BasicConv(
                (main): Sequential(
                  (0): Conv2d(64, 64, kernel_size=(3, 3), stride=(1, 1), padding=(1, 1))
                  (1): ReLU(inplace=True)
                )
              )
              (1): BasicConv(
                (main): Sequential(
                  (0): Conv2d(64, 64, kernel_size=(3, 3), stride=(1, 1), padding=(1, 1))
                )
              )
            )
          )
          (17): ResBlock(
            (main): Sequential(
              (0): BasicConv(
                (main): Sequential(
                  (0): Conv2d(64, 64, kernel_size=(3, 3), stride=(1, 1), padding=(1, 1))
                  (1): ReLU(inplace=True)
                )
              )
              (1): BasicConv(
                (main): Sequential(
                  (0): Conv2d(64, 64, kernel_size=(3, 3), stride=(1, 1), padding=(1, 1))
                )
              )
            )
          )
          (18): ResBlock(
            (main): Sequential(
              (0): BasicConv(
                (main): Sequential(
                  (0): Conv2d(64, 64, kernel_size=(3, 3), stride=(1, 1), padding=(1, 1))
                  (1): ReLU(inplace=True)
                )
              )
              (1): BasicConv(
                (main): Sequential(
                  (0): Conv2d(64, 64, kernel_size=(3, 3), stride=(1, 1), padding=(1, 1))
                )
              )
            )
          )
          (19): ResBlock(
            (main): Sequential(
              (0): BasicConv(
                (main): Sequential(
                  (0): Conv2d(64, 64, kernel_size=(3, 3), stride=(1, 1), padding=(1, 1))
                  (1): ReLU(inplace=True)
                )
              )
              (1): BasicConv(
                (main): Sequential(
                  (0): Conv2d(64, 64, kernel_size=(3, 3), stride=(1, 1), padding=(1, 1))
                )
              )
            )
          )
        )
        (film): Linear(in_features=256, out_features=128, bias=True)
      )
      (2): DBlock(
        (layers): Sequential(
          (0): ResBlock(
            (main): Sequential(
              (0): BasicConv(
                (main): Sequential(
                  (0): Conv2d(32, 32, kernel_size=(3, 3), stride=(1, 1), padding=(1, 1))
                  (1): ReLU(inplace=True)
                )
              )
              (1): BasicConv(
                (main): Sequential(
                  (0): Conv2d(32, 32, kernel_size=(3, 3), stride=(1, 1), padding=(1, 1))
                )
              )
            )
          )
          (1): ResBlock(
            (main): Sequential(
              (0): BasicConv(
                (main): Sequential(
                  (0): Conv2d(32, 32, kernel_size=(3, 3), stride=(1, 1), padding=(1, 1))
                  (1): ReLU(inplace=True)
                )
              )
              (1): BasicConv(
                (main): Sequential(
                  (0): Conv2d(32, 32, kernel_size=(3, 3), stride=(1, 1), padding=(1, 1))
                )
              )
            )
          )
          (2): ResBlock(
            (main): Sequential(
              (0): BasicConv(
                (main): Sequential(
                  (0): Conv2d(32, 32, kernel_size=(3, 3), stride=(1, 1), padding=(1, 1))
                  (1): ReLU(inplace=True)
                )
              )
              (1): BasicConv(
                (main): Sequential(
                  (0): Conv2d(32, 32, kernel_size=(3, 3), stride=(1, 1), padding=(1, 1))
                )
              )
            )
          )
          (3): ResBlock(
            (main): Sequential(
              (0): BasicConv(
                (main): Sequential(
                  (0): Conv2d(32, 32, kernel_size=(3, 3), stride=(1, 1), padding=(1, 1))
                  (1): ReLU(inplace=True)
                )
              )
              (1): BasicConv(
                (main): Sequential(
                  (0): Conv2d(32, 32, kernel_size=(3, 3), stride=(1, 1), padding=(1, 1))
                )
              )
            )
          )
          (4): ResBlock(
            (main): Sequential(
              (0): BasicConv(
                (main): Sequential(
                  (0): Conv2d(32, 32, kernel_size=(3, 3), stride=(1, 1), padding=(1, 1))
                  (1): ReLU(inplace=True)
                )
              )
              (1): BasicConv(
                (main): Sequential(
                  (0): Conv2d(32, 32, kernel_size=(3, 3), stride=(1, 1), padding=(1, 1))
                )
              )
            )
          )
          (5): ResBlock(
            (main): Sequential(
              (0): BasicConv(
                (main): Sequential(
                  (0): Conv2d(32, 32, kernel_size=(3, 3), stride=(1, 1), padding=(1, 1))
                  (1): ReLU(inplace=True)
                )
              )
              (1): BasicConv(
                (main): Sequential(
                  (0): Conv2d(32, 32, kernel_size=(3, 3), stride=(1, 1), padding=(1, 1))
                )
              )
            )
          )
          (6): ResBlock(
            (main): Sequential(
              (0): BasicConv(
                (main): Sequential(
                  (0): Conv2d(32, 32, kernel_size=(3, 3), stride=(1, 1), padding=(1, 1))
                  (1): ReLU(inplace=True)
                )
              )
              (1): BasicConv(
                (main): Sequential(
                  (0): Conv2d(32, 32, kernel_size=(3, 3), stride=(1, 1), padding=(1, 1))
                )
              )
            )
          )
          (7): ResBlock(
            (main): Sequential(
              (0): BasicConv(
                (main): Sequential(
                  (0): Conv2d(32, 32, kernel_size=(3, 3), stride=(1, 1), padding=(1, 1))
                  (1): ReLU(inplace=True)
                )
              )
              (1): BasicConv(
                (main): Sequential(
                  (0): Conv2d(32, 32, kernel_size=(3, 3), stride=(1, 1), padding=(1, 1))
                )
              )
            )
          )
          (8): ResBlock(
            (main): Sequential(
              (0): BasicConv(
                (main): Sequential(
                  (0): Conv2d(32, 32, kernel_size=(3, 3), stride=(1, 1), padding=(1, 1))
                  (1): ReLU(inplace=True)
                )
              )
              (1): BasicConv(
                (main): Sequential(
                  (0): Conv2d(32, 32, kernel_size=(3, 3), stride=(1, 1), padding=(1, 1))
                )
              )
            )
          )
          (9): ResBlock(
            (main): Sequential(
              (0): BasicConv(
                (main): Sequential(
                  (0): Conv2d(32, 32, kernel_size=(3, 3), stride=(1, 1), padding=(1, 1))
                  (1): ReLU(inplace=True)
                )
              )
              (1): BasicConv(
                (main): Sequential(
                  (0): Conv2d(32, 32, kernel_size=(3, 3), stride=(1, 1), padding=(1, 1))
                )
              )
            )
          )
          (10): ResBlock(
            (main): Sequential(
              (0): BasicConv(
                (main): Sequential(
                  (0): Conv2d(32, 32, kernel_size=(3, 3), stride=(1, 1), padding=(1, 1))
                  (1): ReLU(inplace=True)
                )
              )
              (1): BasicConv(
                (main): Sequential(
                  (0): Conv2d(32, 32, kernel_size=(3, 3), stride=(1, 1), padding=(1, 1))
                )
              )
            )
          )
          (11): ResBlock(
            (main): Sequential(
              (0): BasicConv(
                (main): Sequential(
                  (0): Conv2d(32, 32, kernel_size=(3, 3), stride=(1, 1), padding=(1, 1))
                  (1): ReLU(inplace=True)
                )
              )
              (1): BasicConv(
                (main): Sequential(
                  (0): Conv2d(32, 32, kernel_size=(3, 3), stride=(1, 1), padding=(1, 1))
                )
              )
            )
          )
          (12): ResBlock(
            (main): Sequential(
              (0): BasicConv(
                (main): Sequential(
                  (0): Conv2d(32, 32, kernel_size=(3, 3), stride=(1, 1), padding=(1, 1))
                  (1): ReLU(inplace=True)
                )
              )
              (1): BasicConv(
                (main): Sequential(
                  (0): Conv2d(32, 32, kernel_size=(3, 3), stride=(1, 1), padding=(1, 1))
                )
              )
            )
          )
          (13): ResBlock(
            (main): Sequential(
              (0): BasicConv(
                (main): Sequential(
                  (0): Conv2d(32, 32, kernel_size=(3, 3), stride=(1, 1), padding=(1, 1))
                  (1): ReLU(inplace=True)
                )
              )
              (1): BasicConv(
                (main): Sequential(
                  (0): Conv2d(32, 32, kernel_size=(3, 3), stride=(1, 1), padding=(1, 1))
                )
              )
            )
          )
          (14): ResBlock(
            (main): Sequential(
              (0): BasicConv(
                (main): Sequential(
                  (0): Conv2d(32, 32, kernel_size=(3, 3), stride=(1, 1), padding=(1, 1))
                  (1): ReLU(inplace=True)
                )
              )
              (1): BasicConv(
                (main): Sequential(
                  (0): Conv2d(32, 32, kernel_size=(3, 3), stride=(1, 1), padding=(1, 1))
                )
              )
            )
          )
          (15): ResBlock(
            (main): Sequential(
              (0): BasicConv(
                (main): Sequential(
                  (0): Conv2d(32, 32, kernel_size=(3, 3), stride=(1, 1), padding=(1, 1))
                  (1): ReLU(inplace=True)
                )
              )
              (1): BasicConv(
                (main): Sequential(
                  (0): Conv2d(32, 32, kernel_size=(3, 3), stride=(1, 1), padding=(1, 1))
                )
              )
            )
          )
          (16): ResBlock(
            (main): Sequential(
              (0): BasicConv(
                (main): Sequential(
                  (0): Conv2d(32, 32, kernel_size=(3, 3), stride=(1, 1), padding=(1, 1))
                  (1): ReLU(inplace=True)
                )
              )
              (1): BasicConv(
                (main): Sequential(
                  (0): Conv2d(32, 32, kernel_size=(3, 3), stride=(1, 1), padding=(1, 1))
                )
              )
            )
          )
          (17): ResBlock(
            (main): Sequential(
              (0): BasicConv(
                (main): Sequential(
                  (0): Conv2d(32, 32, kernel_size=(3, 3), stride=(1, 1), padding=(1, 1))
                  (1): ReLU(inplace=True)
                )
              )
              (1): BasicConv(
                (main): Sequential(
                  (0): Conv2d(32, 32, kernel_size=(3, 3), stride=(1, 1), padding=(1, 1))
                )
              )
            )
          )
          (18): ResBlock(
            (main): Sequential(
              (0): BasicConv(
                (main): Sequential(
                  (0): Conv2d(32, 32, kernel_size=(3, 3), stride=(1, 1), padding=(1, 1))
                  (1): ReLU(inplace=True)
                )
              )
              (1): BasicConv(
                (main): Sequential(
                  (0): Conv2d(32, 32, kernel_size=(3, 3), stride=(1, 1), padding=(1, 1))
                )
              )
            )
          )
          (19): ResBlock(
            (main): Sequential(
              (0): BasicConv(
                (main): Sequential(
                  (0): Conv2d(32, 32, kernel_size=(3, 3), stride=(1, 1), padding=(1, 1))
                  (1): ReLU(inplace=True)
                )
              )
              (1): BasicConv(
                (main): Sequential(
                  (0): Conv2d(32, 32, kernel_size=(3, 3), stride=(1, 1), padding=(1, 1))
                )
              )
            )
          )
        )
        (film): Linear(in_features=256, out_features=64, bias=True)
      )
    )
    (Convs): ModuleList(
      (0): BasicConv(
        (main): Sequential(
          (0): Conv2d(128, 64, kernel_size=(1, 1), stride=(1, 1))
          (1): ReLU(inplace=True)
        )
      )
      (1): BasicConv(
        (main): Sequential(
          (0): Conv2d(64, 32, kernel_size=(1, 1), stride=(1, 1))
          (1): ReLU(inplace=True)
        )
      )
    )
    (ConvsOut): ModuleList(
      (0): BasicConv(
        (main): Sequential(
          (0): Conv2d(128, 3, kernel_size=(3, 3), stride=(1, 1), padding=(1, 1))
        )
      )
      (1): BasicConv(
        (main): Sequential(
          (0): Conv2d(64, 3, kernel_size=(3, 3), stride=(1, 1), padding=(1, 1))
        )
      )
    )
    (AFFs): ModuleList(
      (0): AFF(
        (conv): Sequential(
          (0): BasicConv(
            (main): Sequential(
              (0): Conv2d(224, 32, kernel_size=(1, 1), stride=(1, 1))
              (1): ReLU(inplace=True)
            )
          )
          (1): BasicConv(
            (main): Sequential(
              (0): Conv2d(32, 32, kernel_size=(3, 3), stride=(1, 1), padding=(1, 1))
            )
          )
        )
      )
      (1): AFF(
        (conv): Sequential(
          (0): BasicConv(
            (main): Sequential(
              (0): Conv2d(224, 64, kernel_size=(1, 1), stride=(1, 1))
              (1): ReLU(inplace=True)
            )
          )
          (1): BasicConv(
            (main): Sequential(
              (0): Conv2d(64, 64, kernel_size=(3, 3), stride=(1, 1), padding=(1, 1))
            )
          )
        )
      )
    )
    (FAM1): FAM(
      (merge): BasicConv(
        (main): Sequential(
          (0): Conv2d(128, 128, kernel_size=(3, 3), stride=(1, 1), padding=(1, 1))
        )
      )
    )
    (SCM1): SCM(
      (main): Sequential(
        (0): BasicConv(
          (main): Sequential(
            (0): Conv2d(3, 32, kernel_size=(3, 3), stride=(1, 1), padding=(1, 1))
            (1): ReLU(inplace=True)
          )
        )
        (1): BasicConv(
          (main): Sequential(
            (0): Conv2d(32, 64, kernel_size=(1, 1), stride=(1, 1))
            (1): ReLU(inplace=True)
          )
        )
        (2): BasicConv(
          (main): Sequential(
            (0): Conv2d(64, 64, kernel_size=(3, 3), stride=(1, 1), padding=(1, 1))
            (1): ReLU(inplace=True)
          )
        )
        (3): BasicConv(
          (main): Sequential(
            (0): Conv2d(64, 125, kernel_size=(1, 1), stride=(1, 1))
            (1): ReLU(inplace=True)
          )
        )
      )
      (proj): BasicConv(
        (main): Sequential(
          (0): Conv2d(128, 128, kernel_size=(1, 1), stride=(1, 1))
        )
      )
    )
    (FAM2): FAM(
      (merge): BasicConv(
        (main): Sequential(
          (0): Conv2d(64, 64, kernel_size=(3, 3), stride=(1, 1), padding=(1, 1))
        )
      )
    )
    (SCM2): SCM(
      (main): Sequential(
        (0): BasicConv(
          (main): Sequential(
            (0): Conv2d(3, 16, kernel_size=(3, 3), stride=(1, 1), padding=(1, 1))
            (1): ReLU(inplace=True)
          )
        )
        (1): BasicConv(
          (main): Sequential(
            (0): Conv2d(16, 32, kernel_size=(1, 1), stride=(1, 1))
            (1): ReLU(inplace=True)
          )
        )
        (2): BasicConv(
          (main): Sequential(
            (0): Conv2d(32, 32, kernel_size=(3, 3), stride=(1, 1), padding=(1, 1))
            (1): ReLU(inplace=True)
          )
        )
        (3): BasicConv(
          (main): Sequential(
            (0): Conv2d(32, 61, kernel_size=(1, 1), stride=(1, 1))
            (1): ReLU(inplace=True)
          )
        )
      )
      (proj): BasicConv(
        (main): Sequential(
          (0): Conv2d(64, 64, kernel_size=(1, 1), stride=(1, 1))
        )
      )
    )
    (drop1): Dropout2d(p=0.1, inplace=False)
    (drop2): Dropout2d(p=0.1, inplace=False)
  )
)
INFO:latent dm encoder: DistributedDataParallel(
  (module): LatentExposureDiffusion(
    (blur_residual_model): DenoiseHead(
      (time_emb): SinusoidalPosEmb()
      (net): Sequential(
        (0): Linear(in_features=576, out_features=256, bias=True)
        (1): LeakyReLU(negative_slope=0.1, inplace=True)
        (2): ResMLP(
          (block): Sequential(
            (0): Linear(in_features=256, out_features=256, bias=True)
            (1): LeakyReLU(negative_slope=0.1, inplace=True)
          )
        )
        (3): ResMLP(
          (block): Sequential(
            (0): Linear(in_features=256, out_features=256, bias=True)
            (1): LeakyReLU(negative_slope=0.1, inplace=True)
          )
        )
        (4): ResMLP(
          (block): Sequential(
            (0): Linear(in_features=256, out_features=256, bias=True)
            (1): LeakyReLU(negative_slope=0.1, inplace=True)
          )
        )
        (5): ResMLP(
          (block): Sequential(
            (0): Linear(in_features=256, out_features=256, bias=True)
            (1): LeakyReLU(negative_slope=0.1, inplace=True)
          )
        )
        (6): ResMLP(
          (block): Sequential(
            (0): Linear(in_features=256, out_features=256, bias=True)
            (1): LeakyReLU(negative_slope=0.1, inplace=True)
          )
        )
      )
    )
    (noise_model): DenoiseHead(
      (time_emb): SinusoidalPosEmb()
      (net): Sequential(
        (0): Linear(in_features=576, out_features=256, bias=True)
        (1): LeakyReLU(negative_slope=0.1, inplace=True)
        (2): ResMLP(
          (block): Sequential(
            (0): Linear(in_features=256, out_features=256, bias=True)
            (1): LeakyReLU(negative_slope=0.1, inplace=True)
          )
        )
        (3): ResMLP(
          (block): Sequential(
            (0): Linear(in_features=256, out_features=256, bias=True)
            (1): LeakyReLU(negative_slope=0.1, inplace=True)
          )
        )
        (4): ResMLP(
          (block): Sequential(
            (0): Linear(in_features=256, out_features=256, bias=True)
            (1): LeakyReLU(negative_slope=0.1, inplace=True)
          )
        )
        (5): ResMLP(
          (block): Sequential(
            (0): Linear(in_features=256, out_features=256, bias=True)
            (1): LeakyReLU(negative_slope=0.1, inplace=True)
          )
        )
        (6): ResMLP(
          (block): Sequential(
            (0): Linear(in_features=256, out_features=256, bias=True)
            (1): LeakyReLU(negative_slope=0.1, inplace=True)
          )
        )
      )
    )
    (condition_encoder): LE_arch(
      (pixel_unshuffle): PixelUnshuffle(downscale_factor=4)
      (stem): Sequential(
        (0): Conv2d(96, 64, kernel_size=(3, 3), stride=(1, 1), padding=(1, 1))
        (1): LeakyReLU(negative_slope=0.1, inplace=True)
      )
      (trunk): Sequential(
        (0): ResBlock(
          (body): Sequential(
            (0): Conv2d(64, 64, kernel_size=(3, 3), stride=(1, 1), padding=(1, 1))
            (1): LeakyReLU(negative_slope=0.1, inplace=True)
            (2): Conv2d(64, 64, kernel_size=(3, 3), stride=(1, 1), padding=(1, 1))
          )
        )
        (1): ResBlock(
          (body): Sequential(
            (0): Conv2d(64, 64, kernel_size=(3, 3), stride=(1, 1), padding=(1, 1))
            (1): LeakyReLU(negative_slope=0.1, inplace=True)
            (2): Conv2d(64, 64, kernel_size=(3, 3), stride=(1, 1), padding=(1, 1))
          )
        )
        (2): ResBlock(
          (body): Sequential(
            (0): Conv2d(64, 64, kernel_size=(3, 3), stride=(1, 1), padding=(1, 1))
            (1): LeakyReLU(negative_slope=0.1, inplace=True)
            (2): Conv2d(64, 64, kernel_size=(3, 3), stride=(1, 1), padding=(1, 1))
          )
        )
        (3): ResBlock(
          (body): Sequential(
            (0): Conv2d(64, 64, kernel_size=(3, 3), stride=(1, 1), padding=(1, 1))
            (1): LeakyReLU(negative_slope=0.1, inplace=True)
            (2): Conv2d(64, 64, kernel_size=(3, 3), stride=(1, 1), padding=(1, 1))
          )
        )
        (4): ResBlock(
          (body): Sequential(
            (0): Conv2d(64, 64, kernel_size=(3, 3), stride=(1, 1), padding=(1, 1))
            (1): LeakyReLU(negative_slope=0.1, inplace=True)
            (2): Conv2d(64, 64, kernel_size=(3, 3), stride=(1, 1), padding=(1, 1))
          )
        )
        (5): ResBlock(
          (body): Sequential(
            (0): Conv2d(64, 64, kernel_size=(3, 3), stride=(1, 1), padding=(1, 1))
            (1): LeakyReLU(negative_slope=0.1, inplace=True)
            (2): Conv2d(64, 64, kernel_size=(3, 3), stride=(1, 1), padding=(1, 1))
          )
        )
      )
      (head): Sequential(
        (0): Conv2d(64, 128, kernel_size=(3, 3), stride=(1, 1), padding=(1, 1))
        (1): LeakyReLU(negative_slope=0.1, inplace=True)
        (2): Conv2d(128, 128, kernel_size=(3, 3), stride=(1, 1), padding=(1, 1))
        (3): LeakyReLU(negative_slope=0.1, inplace=True)
        (4): Conv2d(128, 256, kernel_size=(3, 3), stride=(1, 1), padding=(1, 1))
        (5): LeakyReLU(negative_slope=0.1, inplace=True)
        (6): AdaptiveAvgPool2d(output_size=1)
      )
      (mlp): Sequential(
        (0): Linear(in_features=256, out_features=256, bias=True)
        (1): GELU(approximate='none')
        (2): Linear(in_features=256, out_features=256, bias=True)
        (3): GELU(approximate='none')
      )
    )
  )
)
INFO:model parameters: 16222787
INFO:latent dm encoder parameters: 2100032
INFO:Optimizer:Adam
INFO:Train Data length:4206
INFO:Reducer buckets have been rebuilt in this iteration.
INFO:Reducer buckets have been rebuilt in this iteration.
INFO:Epoch [1/3]: Train_loss: 0.1416 Train_psnr:28.1621 Train_lpips:0.0000
…
